neuramorphic-llm/models/simple_fixed_model.pth (torch, 473256 bytes, 7 tensors)

embedding.weight f4 [95, 64]
0	0x4026b919	2.6050475
1	0x3f873c15	1.056521
2	0x3e962d87	0.2933161
3	0xbe8ce748	-0.27520204
4	0x3f93ef12	1.1557333
5	0xbf04e1d8	-0.5190711
6	0xbf2f4bf9	-0.684753
7	0x3dc81fc7	0.09771686
8	0xbe860945	-0.26178947
9	0x3f30188e	0.6878747
10	0xbe3e04b6	-0.18556485
11	0xbe09a3c4	-0.13441378
12	0x3fd37339	1.6519538
13	0xbdafa8e6	-0.08577137
14	0x3e510c44	0.20414835
15	0xbf9aaafd	-1.2083431
16	0xbf5ee21c	-0.87063766
17	0xbf71c392	-0.9443904
18	0xbfb5a68f	-1.4191455
19	0xbffd6237	-1.9795598
20	0x3fbaf3bf	1.4605635
21	0xbf3f0b01	-0.74626166
22	0xbee80cf8	-0.45322394
23	0x3f99828a	1.1992962
24	0xbf9d9362	-1.2310603
25	0x3d2caf89	0.04215959
26	0x3eb5d17c	0.35511386
27	0xbf7dc5b8	-0.9912982
28	0x3d46d2a9	0.048540745
29	0xbfc7871d	-1.5588108
30	0x3ed36469	0.41287544
31	0xbf4884ee	-0.78327835
32	0xc0457fd1	-3.0859263
33	0xbe85a718	-0.26104045
34	0xbf9a07e7	-1.2033662
35	0xc006e11d	-2.1074898
36	0x3f226fe2	0.6345197
37	0xbf2e7248	-0.6814313
38	0xbf279d35	-0.65474254
39	0x400d1f7a	2.2050462
40	0xbe897337	-0.26845714
41	0xbdf157c3	-0.11784317
42	0x3ef11565	0.47086635
43	0xbe967dd9	-0.2939289
44	0x3e1e2198	0.15442502
45	0x3f828752	1.0197546
46	0xbfd6ac66	-1.6771362
47	0xbe598e44	-0.21245676
48	0xbe710afb	-0.23539345
49	0x3f93a80c	1.1535659
50	0xbf87bc7a	-1.0604393
51	0xc00718f9	-2.1108992
52	0x3ea458d1	0.32099012
53	0xc003bbb3	-2.0583313
54	0x3ecbe814	0.398255
55	0xc0090e59	-2.1415007
56	0xbfb36601	-1.4015504
57	0x3f2363d3	0.63824195
58	0xbf17601f	-0.59131044
59	0xbf854012	-1.0410178
60	0xbca61e2a	-0.020278055
61	0xbf3f1acf	-0.7465028
62	0xbfc20b2e	-1.5159662
63	0x3ebd5687	0.36980078
64	0x3f61d839	0.88220555
65	0x3f9138ae	1.1345422
66	0xbf0e8da5	-0.5568488
67	0xbf5b8cfd	-0.85762006
68	0xbe6d8858	-0.23196542
69	0xbe702334	-0.23450929
70	0x3f9ed65f	1.2409171
71	0xbfc9670f	-1.5734576
72	0x3f8255a1	1.0182382
73	0x3edda8f5	0.43292966
74	0xbfd1368a	-1.6344769
75	0xbf02b88b	-0.5106284
76	0xbf41e39c	-0.7573793
77	0xbe9a0593	-0.30082378
78	0x3e43adec	0.19109315
79	0x3e63fb39	0.22263803
80	0x3fac608f	1.3466967
81	0x3e453403	0.19258122
82	0xbf20c277	-0.6279673
83	0x3fd32e27	1.649846
84	0xbfd665f5	-1.6749865
85	0x3eee48ed	0.46540013
86	0xbeaeddeb	-0.34153685
87	0x3f537485	0.8259967
88	0xbec5f7ce	-0.38665622
89	0xbe4d1986	-0.20029268
90	0xba80d1b0	-0.0009828117
91	0xbf805560	-1.0026054
92	0xbfa0ff08	-1.2577829
93	0xbe9b5ce8	-0.3034432
94	0x3ee84deb	0.45371947
95	0xbd9c295e	-0.07625078
96	0xbd6a5f4b	-0.057219785
97	0x3ec0f8e6	0.37689894
98	0x3fb796a4	1.4342847
99	0x3fb00470	1.3751354
100	0x402447a7	2.5668733
101	0xbe38b5d4	-0.18038112
102	0xbf4cdd66	-0.8002533
103	0xbfe09041	-1.7544023
104	0xbf8c2372	-1.0948317
105	0x3f795a6f	0.97403616
106	0x3fbd7841	1.4802324
107	0xbf0ad505	-0.5423129
108	0x40118f04	2.274354
109	0xbf341734	-0.70347905
110	0xbe881d11	-0.26584676
111	0xbfd90607	-1.6954964
112	0x3e7fd19b	0.24982302
113	0xbe9bf2bb	-0.30458626
114	0x3ec7d8d8	0.39032626
115	0xbeec87fa	-0.46197492
116	0xbeaec9fc	-0.34138477
117	0xbe9eee98	-0.31041408
118	0x3f1311fb	0.5744931
119	0xbf401aa1	-0.7504063
120	0x3ebba175	0.3664662
121	0x3f84c9cb	1.0374082
122	0xbf8bd775	-1.0925127
123	0x3f36de38	0.7143283
124	0xbf8879d6	-1.0662181
125	0xbec45ffe	-0.38354486
126	0x3f1f2591	0.62166697
127	0x3eea444f	0.4575524
128	0xbf249358	-0.6428733
129	0xbf1a8cc7	-0.6037106
130	0xbfc67a8e	-1.5506151
131	0x3e15221d	0.14563794
132	0xbfbc4114	-1.470736
133	0xbff194cf	-1.8873538
134	0x3fa8fa38	1.3201361
135	0xbf4b6a0c	-0.7945869
136	0xbf574f19	-0.8410507
137	0xbf759d11	-0.9594279
138	0x3ec31b6c	0.3810686
139	0x40088dae	2.1336474
140	0x3fa947fc	1.3225093
141	0xbf374b6c	-0.7159946
142	0xbeb4f511	-0.3534322
143	0x3f071591	0.5276728
144	0xbdfc2f3b	-0.12313696
145	0xbf30ad11	-0.6901408
146	0xbf903380	-1.1265717
147	0xbf7c88a1	-0.9864598
148	0xbf0c0fd7	-0.5471167
149	0x3e74d547	0.23909484
150	0xbef2f857	-0.47455093
151	0xbf96f130	-1.1792355
152	0xbe5bb7f2	-0.21456888
153	0xbf89aad6	-1.075526
154	0x3f863cb1	1.0487272
155	0x3f64f5e9	0.8943773
156	0x3d012d39	0.03153727
157	0xbfba059f	-1.4532965
158	0x3e3569c8	0.17716134
159	0x3ceebb7b	0.029142132
160	0xbd988f6d	-0.07449231
161	0x3f6802bd	0.9062918
162	0xbfd037eb	-1.6267065
163	0xbf187908	-0.5955968
164	0x3d12059c	0.03564988
165	0xbe52121e	-0.20514724
166	0x3dd84b5a	0.10561247
167	0xbe876e24	-0.26451218
168	0x3fed29dd	1.8528401
169	0x3f15c39b	0.58501595
170	0x3f83ad67	1.0287293
171	0xbe8d8b09	-0.27645138
172	0x3e1d487b	0.1535968
173	0x3f11e3bb	0.56988114
174	0x3a1b8cb2	0.0005933746
175	0xbfe05358	-1.7525434
176	0x3fc33820	1.5251503
177	0x3fb3318f	1.3999499
178	0xbf007311	-0.5017558
179	0x3f8abb5f	1.0838431
180	0x3e754abd	0.23954292
181	0xbfb8609f	-1.4404486
182	0x3ea8e8c3	0.32990083
183	0xbe74ca56	-0.2390531
184	0x3f12dee9	0.57371384
185	0xbf355432	-0.70831597
186	0xbf6c08d1	-0.9220095
187	0xbd7d0627	-0.061773445
188	0xbfb16cd8	-1.3861341
189	0xbd780760	-0.06055391
190	0x3d596115	0.0530711
191	0xbda172e5	-0.078832425
192	0x3f28dbd3	0.65960425
193	0x3e83bc2a	0.25729495
194	0xbf08047c	-0.5313184
195	0xbfcd6746	-1.6047142
196	0x3f10f9a8	0.56630945
197	0x3e9e53b6	0.3092324
198	0xbf318922	-0.69349873
199	0xbea4d9ad	-0.32197323
200	0x3f4b6e80	0.79465485
201	0x3ea93e08	0.3305514
202	0x3f58763a	0.845554
203	0xbf0c5371	-0.5481482
204	0xbfa4d214	-1.2876611
205	0x3e872173	0.26392707
206	0xbf8345d9	-1.0255691
207	0xbfa9f061	-1.3276483
208	0x3e576f00	0.21038437
209	0xbfe9fb38	-1.8279791
210	0x3ed272ec	0.41103303
211	0x3f8764b3	1.0577606
212	0xbf3a63f2	-0.72808754
213	0xbe3ae314	-0.18250686
214	0x3e71331d	0.23554654
215	0xbf0e8dcd	-0.5568512
216	0xbf90576a	-1.1276677
217	0xbdb24e00	-0.087062836
218	0x3e7c498e	0.24637434
219	0xbfa8e102	-1.3193667
220	0xbf07e4ef	-0.530837
221	0xbfb028ce	-1.3762453
222	0xbee395b2	-0.44450146
223	0xbf380397	-0.7188048
224	0x3e52e073	0.20593433
225	0x3fc0efbc	1.5073161
226	0xbfa01844	-1.2507405
227	0x3f8f483e	1.1193922
228	0x3edb55f6	0.4283902
229	0xbeaed843	-0.3414937
230	0x3ee090bf	0.43860433
231	0x3d927a58	0.071522415
232	0xbf97453b	-1.1818002
233	0x4034566e	2.8177752
234	0x3e07d2e1	0.13264038
235	0x3cae0378	0.021241888
236	0xbcfeaa15	-0.03108696
237	0xbf8677aa	-1.0505269
238	0x3e8cc659	0.27495077
239	0x3f0f7f74	0.56053853
240	0xbde10c17	-0.10988634
241	0x3f248fd4	0.64281964
242	0x3d051c9e	0.032497995
243	0xbf46f747	-0.77721065
244	0xbfe31352	-1.7740271
245	0xbec53fea	-0.38525325
246	0x3f15dcae	0.58539855
247	0x3dba2298	0.090886295
248	0xbf10fec1	-0.56638724
249	0x3f83c69c	1.0294986
250	0xbef9728f	-0.48720214
251	0xbfba2a14	-1.4544091
252	0xbf9207fb	-1.1408685
253	0x3f8efe37	1.117133
254	0x3f571953	0.84023017
255	0xc00e93b4	-2.227765

rnn.weight_ih_l0 f4 [512, 64]
0	0x3e366ae4	0.17814213
1	0xbdf1d2fe	-0.11807822
2	0xbd1bcdab	-0.038037937
3	0xbbf177c0	-0.0073690116
4	0x3e0226bf	0.12710093
5	0xbd55bdc6	-0.052182935
6	0xbe0939d6	-0.13400969
7	0x3c1d583d	0.009603557
8	0xbde67f07	-0.11254697
9	0x3e02a4bc	0.12758154
10	0xbd7355bd	-0.05940794
11	0x3dfbb754	0.122908264
12	0x3d7b9446	0.0614207
13	0x3db6ee5a	0.08932181
14	0xbcf3b26a	-0.02974816
15	0xbe289e96	-0.16466746
16	0xbd13bcb1	-0.036068622
17	0xbe21cb6a	-0.15800253
18	0xbd48b01e	-0.048996083
19	0x3b1163e2	0.002218478
20	0xbd9211c0	-0.07132292
21	0x3c95adf4	0.018271424
22	0xbcc0e11c	-0.02354484
23	0x3e1b0ca8	0.15141547
24	0xbdce59c2	-0.10075714
25	0xbd08637f	-0.033298012
26	0x3d317dff	0.04333305
27	0xbdfb6923	-0.122759126
28	0x3dff2759	0.12458677
29	0x3cc042d9	0.023469375
30	0x3dc5ee8f	0.09664642
31	0xbdd880e9	-0.10571463
32	0xbd5deb4f	-0.054179486
33	0x3deb4985	0.11488632
34	0xbbbdefbc	-0.005796401
35	0x3d5a56a6	0.05330529
36	0xbb30a575	-0.0026954089
37	0x3d99a71e	0.07502578
38	0x3d87a3d4	0.066230446
39	0x3dcb9e4d	0.09942303
40	0x3b9910b1	0.004671179
41	0xbce87267	-0.028374864
42	0x3d5fa9da	0.054605342
43	0x3db6e195	0.08929745
44	0x3d585958	0.05281958
45	0xba75fbca	-0.0009383528
46	0x3d69a70c	0.057044074
47	0xbd80b421	-0.06284357
48	0xbdcf7a16	-0.10130708
49	0x3d78ad0e	0.060711913
50	0x3d510642	0.05103136
51	0x3bee2547	0.0072676274
52	0x3d3f94e7	0.046772864
53	0xbd47efc8	-0.048812658
54	0xbcb7938e	-0.022409227
55	0xbd2bddec	-0.041959688
56	0xbcf53061	-0.029930295
57	0xbdbf177d	-0.09330652
58	0xbe35a982	-0.17740443
59	0xbccd4646	-0.025057923
60	0xbd0a1b7b	-0.033717614
61	0xbd0ee6da	-0.034888126
62	0xbde53797	-0.111922435
63	0xbdf39afc	-0.11894795
64	0x3e2dea63	0.16983943
65	0x3d1e8cc5	0.038708467
66	0xbc978d17	-0.018499894
67	0x3d80e013	0.06292739
68	0x3da49553	0.08036294
69	0xbbda5787	-0.006663266
70	0xbdae5e6a	-0.08514102
71	0x3da9286d	0.08259664
72	0x3d162cab	0.036663692
73	0xbcf7cb6b	-0.030248364
74	0xbd7dc2b3	-0.061953258
75	0x3e1bdea4	0.1522165
76	0x3ccbcc45	0.024877677
77	0x3d7ad127	0.06123462
78	0xbdd868ef	-0.105668895
79	0x3ccb388c	0.024807237
80	0x3d78d4dc	0.060749874
81	0xbdfed34b	-0.12442645
82	0xbe19d415	-0.15022309
83	0xb7f7be68	-2.953336e-05
84	0x3d55be65	0.052183527
85	0xbdbc378c	-0.09190282
86	0xbdfcb1da	-0.1233861
87	0x3d559f32	0.052153774
88	0xbe0c4cb7	-0.1370114
89	0x3e10369b	0.1408333
90	0xbd71da4e	-0.059046082
91	0xbd992242	-0.07477237
92	0x3d8182e9	0.06323797
93	0x3cc9bd4b	0.024626395
94	0x3cdb28a1	0.026752772
95	0xbe0b7b89	-0.13621344
96	0x3d5aa5ef	0.053380903
97	0x3e087c8d	0.13328762
98	0x3e07ea7f	0.13273047
99	0xbe0fb969	-0.14035572
100	0xbdb6b1fd	-0.08920667
101	0x3e02b584	0.12764555
102	0xbd2638ec	-0.04058163
103	0x3e39a4b7	0.1812924
104	0x3b1c571e	0.0023855637
105	0xbcc3607a	-0.023849715
106	0xbd368ef2	-0.044569917
107	0x3d77bbbb	0.060481768
108	0xbdb664ca	-0.08905943
109	0xbda4a499	-0.08039207
110	0xbd8304a5	-0.0639737
111	0x3e05566b	0.13021247
112	0xbdb397eb	-0.087692104
113	0x3da46bc3	0.080283664
114	0x3d7113f8	0.058856934
115	0x3cd6782d	0.026180351
116	0xbd9a3e43	-0.07531407
117	0xbd8793b8	-0.06619972
118	0x3de25ce4	0.11052874
119	0xbb95f617	-0.0045764553
120	0xbdc343fc	-0.09534451
121	0xbd492625	-0.049108643
122	0xbe284dbd	-0.16435905
123	0x3c4614c1	0.012089909
124	0xbdb0d079	-0.08633513
125	0xbcb6518a	-0.022255678
126	0xbd431e5e	-0.047636382
127	0xbde1d7c2	-0.11027481
128	0x3deeb033	0.11654701
129	0xbd36ae5b	-0.044599872
130	0xbdcb82e6	-0.09937076
131	0xbd889e11	-0.06670774
132	0xbd365ebb	-0.044523936
133	0x3d1d7db9	0.038449977
134	0xbd923256	-0.07138507
135	0x3e221b17	0.15830646
136	0x3df6964f	0.12040388
137	0x3dc0ee06	0.09420399
138	0x3d859e9d	0.06524394
139	0x3e2dde0f	0.1697924
140	0xbd5c831e	-0.05383598
141	0x3bd69147	0.00654808
142	0xbc7c002a	-0.0153808985
143	0x3d312959	0.043252323
144	0xbcf64dc5	-0.03006638
145	0xbe1bbcfc	-0.1520881
146	0xbe091d7c	-0.13390154
147	0xbd81e06f	-0.063416354
148	0xbd2033c5	-0.03911187
149	0xbd00a2a8	-0.03140512
150	0xbe157138	-0.14593971
151	0xbe194beb	-0.14970367
152	0xbe052ec7	-0.13006125
153	0x3dcbddb2	0.099543944
154	0xbcc109db	-0.02356427
155	0xbd8da2a8	-0.0691579
156	0x3d065b8b	0.032802146
157	0x3d468268	0.04846421
158	0xbdaed333	-0.08536377
159	0x3c90f9bb	0.017697206
160	0x3dc2c621	0.09510446
161	0xbd1f3eeb	-0.038878363
162	0x3de05479	0.10953612
163	0xbde574a6	-0.112038895
164	0xbde6538c	-0.11246404
165	0x3d4e26c0	0.050329924
166	0xbca8d11a	-0.02060752
167	0x3e0dfb2f	0.1386535
168	0xbd5e74bc	-0.054310545
169	0x3db6c31a	0.089239314
170	0xbdbad7f8	-0.09123224
171	0x3e0303c5	0.12794407
172	0xbd319889	-0.04335836
173	0xbdca1e60	-0.09869075
174	0xbde2bbcc	-0.11070976
175	0x3dce9061	0.10086132
176	0xbdf1855a	-0.11793013
177	0x3e2e2307	0.1700555
178	0x3bc858f8	0.0061141215
179	0xbdbe0e63	-0.09280088
180	0x3d37f954	0.044915512
181	0x3e0aaea6	0.13543186
182	0x3e02695b	0.12735502
183	0x3d8c1775	0.068404116
184	0x3de34cb2	0.11098613
185	0xbc5b2f81	-0.013378025
186	0xbcf225d1	-0.029559048
187	0xbc884a3b	-0.016636958
188	0xbcca3a25	-0.024685929
189	0xbd679992	-0.05654294
190	0xbe2c2c51	-0.1681378
191	0xbe004e97	-0.1252998
192	0x3e419fdd	0.18908639
193	0xbdd03534	-0.10166398
194	0xbd913e65	-0.07091979
195	0xbd96e347	-0.073675685
196	0xbd831ec8	-0.064023554
197	0xbc1d7a4d	-0.009611678
198	0xbdabcefd	-0.08389089
199	0x3e264189	0.16235937
200	0x3dd9d1fd	0.10635755
201	0xbcbcc732	-0.023044202
202	0x3cbca357	0.023027105
203	0x3dabc973	0.08388033
204	0x3e0fd26d	0.14045115
205	0x3d6f9f46	0.058501504
206	0x3d0ced6b	0.034406107
207	0x3d3091cd	0.043107796
208	0x3d892eb6	0.066983625
209	0xbe7ffcd8	-0.24998796
210	0xbdcb4e6e	-0.09927069
211	0xbbc3b6aa	-0.005972703
212	0x3d661ceb	0.056179922
213	0xbc0f3b7b	-0.008742209
214	0xbd461dc0	-0.048368216
215	0xbd637789	-0.05553392
216	0xbe4c9383	-0.19978146
217	0x3c974745	0.018466601
218	0x3aff094f	0.001945773
219	0x3d0f869e	0.03504049
220	0xbd0408ac	-0.032234833
221	0xbd0b50a8	-0.034012467
222	0xbdf6d3f7	-0.12052148
223	0x3d1bede8	0.038068682
224	0xbd8175c8	-0.06321293
225	0x3cef1b3b	0.02918779
226	0xbcaebf3d	-0.021331424
227	0xbe0deca2	-0.138598
228	0xbd194613	-0.037420344
229	0x3c3979e3	0.011320564
230	0xbcf23046	-0.029564034
231	0x3de92884	0.11384681
232	0x3d94832f	0.07251584
233	0x3d92efa8	0.07174617
234	0xbb4bb271	-0.00310817
235	0x3bc12057	0.005893748
236	0xbe23fcd0	-0.16014409
237	0xbccab6de	-0.024745401
238	0xbda2bed8	-0.07946557
239	0xbc0847cb	-0.008317898
240	0xbda83079	-0.082123704
241	0x3ccd001a	0.025024462
242	0xbe051a65	-0.1299835
243	0xbe3c3581	-0.18379785
244	0xbd8f8cdd	-0.070092894
245	0x3deeaebe	0.11654423
246	0x3d1af9c8	0.037835866
247	0xbda62393	-0.08112254
248	0xbe2a4201	-0.16626741
249	0xbcf860e2	-0.030319635
250	0x3ab86d28	0.0014070617
251	0x3daaf362	0.08347203
252	0xbbc4a5dc	-0.0060012173
253	0xbb000eeb	-0.0019540142
254	0xbd82e1e0	-0.063907385
255	0xbd9342ef	-0.07190501

rnn.weight_hh_l0 f4 [512, 128]
0	0x3dd9f74f	0.106428735
1	0xbe3dd261	-0.18537284
2	0x3caa5b83	0.02079559
3	0x3cb5ab9d	0.022176558
4	0xbd93a18a	-0.072085455
5	0x3e1b5fb8	0.15173233
6	0x3cb440d4	0.022003569
7	0xbd61be7e	-0.055113308
8	0x3d06ae95	0.03288134
9	0xbdfc8266	-0.12329559
10	0x3bee5226	0.0072729765
11	0x3cffbead	0.031218851
12	0x3d8ede1c	0.06975958
13	0x3d3b62c1	0.045748476
14	0xbc232535	-0.009957601
15	0x3e0c167d	0.13680454
16	0x3d6dff4a	0.05810479
17	0x3a4e383f	0.00078666577
18	0x3dd720c3	0.10504296
19	0x3de7d22d	0.11319385
20	0xbdcaac40	-0.09896135
21	0xbdd7aae8	-0.10530645
22	0x3dc2c20d	0.095096685
23	0xbd832331	-0.064031966
24	0xbd535379	-0.051593278
25	0x3e18751f	0.14888428
26	0xbdffce65	-0.124905385
27	0x3d44e7ef	0.04807275
28	0xbb1e02be	-0.0024110521
29	0x3df94c12	0.121727124
30	0xbe0cf16c	-0.1376397
31	0x3e34d10a	0.17657867
32	0x3d64272b	0.055701416
33	0x3c3b5f2b	0.011436264
34	0xbe0e1b85	-0.13877685
35	0xbe272ee7	-0.16326486
36	0x3dd80c1f	0.10549187
37	0xbe0193b4	-0.12654
38	0x3dd2ca75	0.10292522
39	0x3e38614a	0.18005863
40	0xbe2828d4	-0.16421825
41	0xba999279	-0.0011716626
42	0x3e0749f3	0.13211803
43	0x3d1a98e1	0.037743453
44	0x3e241ec9	0.16027369
45	0xbd953057	-0.07284611
46	0x3bf08742	0.0073403427
47	0xbe09752e	-0.13423607
48	0xbe0157da	-0.12631169
49	0xbe361747	-0.17782317
50	0x3d419ab4	0.047266677
51	0x3bdd3395	0.006750534
52	0xbdb722ec	-0.08942208
53	0x3df88d45	0.1213632
54	0x3d4a8f6b	0.04945318
55	0x3de7bba1	0.11315084
56	0x3d506abc	0.05088304
57	0xbd83e127	-0.06439429
58	0xbd8d6c0b	-0.06905373
59	0xbbb2382a	-0.005438824
60	0xbe329038	-0.17437828
61	0xbc8c3876	-0.017116766
62	0xbd9e2b31	-0.07723082
63	0xbc02cf58	-0.007984005
64	0x3d428d7a	0.047498204
65	0x3dca01df	0.09863638
66	0x3da55ce1	0.08074356
67	0x3d20a7f6	0.03922268
68	0x3e27551b	0.16341059
69	0xbda58265	-0.080815114
70	0x3d7d4082	0.061829098
71	0x3d599064	0.053116217
72	0x3d8524b1	0.06501139
73	0xbd92242c	-0.071358055
74	0x3e230c63	0.15922694
75	0xbdd7f562	-0.1054485
76	0xbe355133	-0.17706756
77	0xbd8df379	-0.06931204
78	0xbc3a3dba	-0.011367256
79	0xbd29fad2	-0.041498967
80	0xbd0e5d86	-0.03475716
81	0x3d8dd699	0.06925697
82	0xbbaf0ca1	-0.0053420817
83	0x3d933814	0.071884304
84	0xbd14ee6b	-0.036360186
85	0x3a7d824b	0.0009670599
86	0x3e330085	0.17480667
87	0xbcaf4431	-0.02139482
88	0xbe43c35e	-0.19117495
89	0xbd8b825a	-0.06811972
90	0x3d20ae7d	0.039228905
91	0xbd46cb85	-0.048533935
92	0xbd47ee0a	-0.048810996
93	0x3c309975	0.0107787745
94	0x3cbd977f	0.023143528
95	0xbdc1650e	-0.09443103
96	0xbe1844c8	-0.14869988
97	0xbd81af28	-0.063322365
98	0xbcef28a8	-0.029194191
99	0xbca54263	-0.020173257
100	0xbddb1fc7	-0.106994204
101	0x3c064811	0.008195893
102	0xbcd5c124	-0.026093073
103	0xbdfa6b00	-0.1222744
104	0x3d0fd114	0.0351115
105	0xbdae02c1	-0.08496619
106	0x3db7b97d	0.08970926
107	0x3dc2d272	0.095127955
108	0x3b58acb2	0.0033061919
109	0xbdaec239	-0.08533139
110	0x3cea90f8	0.02863358
111	0x3dbee212	0.09320463
112	0xbdf0ba37	-0.11754268
113	0xbe0fc621	-0.14040424
114	0xbd683b05	-0.05669691
115	0x3c190e1d	0.009341744
116	0x3e125970	0.1429193
117	0x3dd1304f	0.10214292
118	0x3d8a6445	0.06757406
119	0x3d29b60b	0.041433375
120	0x3dc15c89	0.09441478
121	0xbe068e52	-0.13140228
122	0xbe2fb7ee	-0.17160007
123	0x3c984510	0.018587619
124	0x3da49556	0.08036296
125	0xbdeecb7d	-0.11659906
126	0x3e0ee054	0.13952762
127	0xbb3d79be	-0.0028911675
128	0x3cdaa346	0.026689183
129	0x3c12587c	0.008932229
130	0xbb93ccfe	-0.004510521
131	0x3d339ca8	0.04385057
132	0xbd024ad7	-0.031809654
133	0x3d8dd192	0.06924738
134	0x3d8c0718	0.068372905
135	0x3cbdd3b2	0.023172233
136	0xbde9faf5	-0.114248194
137	0xbd0a26ff	-0.033728596
138	0xbca83bae	-0.02053627
139	0x3db3f9b5	0.08787862
140	0x3e134cb9	0.14384736
141	0xbcf19343	-0.029489165
142	0x3c95f3bc	0.018304698
143	0x3e078955	0.13235982
144	0xbd5bef65	-0.0536951
145	0x3cd6f788	0.026241079
146	0xbae2d439	-0.0017305679
147	0x3e103728	0.1408354
148	0xbcfaa442	-0.030595902
149	0xbd2b84c1	-0.04187465
150	0x3ddd550d	0.10807238
151	0xbdc14988	-0.09437853
152	0x3d47db20	0.04879296
153	0x3c56e932	0.0131171215
154	0xb986f5b9	-0.0002574155
155	0x3dbef6ec	0.0932444
156	0xbe4c1383	-0.19929318
157	0x3d69e71f	0.05710518
158	0xbbc10dde	-0.0058915457
159	0x3d368fe5	0.044570822
160	0x3d2f5faf	0.04281586
161	0xbc6f1959	-0.014593446
162	0x3d1cdfaa	0.03829924
163	0x3ccde476	0.025133353
164	0x3d6a6449	0.057224546
165	0xbddd4e74	-0.10805979
166	0xbd2be426	-0.041965626
167	0x3e607061	0.21917869
168	0xbcf582ff	-0.02996969
169	0x3d7941ad	0.06085365
170	0x3cd81e0d	0.026381517
171	0x3e1ac8fd	0.15115733
172	0x3cfdb81a	0.030971576
173	0xbcdd765c	-0.027033977
174	0xbd77133a	-0.06032107
175	0x3be93fcb	0.0071182004
176	0xbd933c18	-0.07189196
177	0x3c1e1d95	0.009650608
178	0x3dc1444f	0.09436857
179	0x3db7ee74	0.08981028
180	0xbd62d884	-0.055382267
181	0x3c2c3280	0.010510087
182	0x3d22e746	0.03977134
183	0x3e078d2f	0.13237451
184	0xbca4daa5	-0.02012379
185	0x3d42858f	0.047490653
186	0x3ccf41b7	0.02529989
187	0xbdc7ea90	-0.09761536
188	0x3c86bb96	0.01644687
189	0xbd52a6c6	-0.05142858
190	0x3d9be94a	0.07612856
191	0x3cb92877	0.022602303
192	0x3e0cf2bc	0.13764471
193	0x3e4be5a7	0.19911824
194	0xbad657fd	-0.0016353127
195	0xbda8b2ba	-0.082372144
196	0xbd78098d	-0.060555983
197	0x3bdd4219	0.006752264
198	0xbdd4c50e	-0.10389148
199	0x3d7fa9e8	0.062417895
200	0x3d19c7ce	0.037544064
201	0x3def7336	0.116918966
202	0x3d755bd3	0.059902024
203	0xbd390ce8	-0.045178324
204	0xbda0f290	-0.07858765
205	0xbd598446	-0.05310466
206	0x3d7ec40a	0.062198676
207	0xbae702dd	-0.0017624755
208	0xbdcfe062	-0.101502195
209	0xbdec7e6a	-0.11547549
210	0x3df880ba	0.12133928
211	0xbd3d81dc	-0.04626642
212	0xbd511794	-0.051047876
213	0x3dde4eb6	0.10854857
214	0x3e0b4574	0.13600713
215	0xbc47c4bf	-0.012192904
216	0xbdd4c647	-0.10389381
217	0xbd66385f	-0.056206103
218	0x3cc5d49d	0.024149233
219	0xbd9ef309	-0.07761199
220	0xbc7bff5e	-0.0153807085
221	0x3dc6a442	0.096992984
222	0x3c9bf1d1	0.019036205
223	0xbaadd661	-0.0013262742
224	0xbdd33f0d	-0.1031476
225	0xbe04bda9	-0.12962975
226	0xbdb25304	-0.0870724
227	0x3d74751c	0.059681997
228	0xbd34267c	-0.043982014
229	0x3c3aff72	0.011413442
230	0x3d837638	0.06419033
231	0x3d8430ce	0.06454621
232	0xbb8110ca	-0.003938769
233	0xbd23f0f9	-0.04002473
234	0x3dac0eec	0.084012836
235	0x3e256c43	0.1615458
236	0xbe36d834	-0.17855912
237	0xbd2df205	-0.042467136
238	0x3d852366	0.06500892
239	0x3e00447c	0.12526125
240	0xbe169896	-0.14706644
241	0xbda3a027	-0.07989531
242	0xbc344299	-0.011002206
243	0xbd9af32d	-0.07565913
244	0x3e1f6d80	0.15569115
245	0x3d678375	0.05652185
246	0x3e08def8	0.13366306
247	0xb9778039	-0.00023603522
248	0x3d30ac07	0.043132808
249	0xbd10190d	-0.03518014
250	0xbd714eef	-0.058913168
251	0x3d7e93ef	0.0621528
252	0xbce1c4bd	-0.027559632
253	0xbd9e13a8	-0.07718593
254	0x3cd787bb	0.026309839
255	0xbe243cd7	-0.16038834

rnn.bias_ih_l0 f4 [512]
0	0x3e6d3bac	0.23167294
1	0x3ea20a2f	0.31648394
2	0x3e1848e7	0.1487156
3	0x3e1b707f	0.15179633
4	0x3def7210	0.116916776
5	0x3e12c592	0.1433318
6	0x3e3533a6	0.17695484
7	0x3da58da3	0.08083656
8	0x3e8607ee	0.26177925
9	0x3e974af6	0.29549378
10	0x3e95fd37	0.2929475
11	0x3e8ea171	0.27857545
12	0x3e82d02c	0.25549448
13	0x3e6747b2	0.22585943
14	0x3e8db35b	0.276759
15	0x3e7e8e97	0.24859081
16	0x3e5da1b6	0.21643719
17	0x3e14ab4d	0.14518471
18	0x3e8d7b71	0.2763324
19	0x3e1ffb7d	0.15623279
20	0x3df85c91	0.12127031
21	0x3e666043	0.22497658
22	0x3ded67f2	0.115920916
23	0x3e9032ec	0.2816385
24	0x3e645ec0	0.2230177
25	0x3e53474e	0.2063267
26	0x3e0f8a18	0.14017522
27	0x3e84045f	0.25784585
28	0x3e359e0d	0.17736073
29	0x3e1cf08e	0.1532614
30	0x3e0da1a0	0.13831186
31	0x3e502b42	0.20329002
32	0x3e8f4671	0.2798343
33	0x3e6f1ab2	0.23350027
34	0x3e99d763	0.3004714
35	0x3e9dde37	0.308336
36	0x3e48dab7	0.19614683
37	0x3e51ba55	0.20481236
38	0x3e1c647e	0.1527271
39	0x3dfb5f00	0.12273979
40	0x3e75e1ea	0.2401196
41	0x3e706119	0.2347454
42	0x3e42b93f	0.19015978
43	0x3e56752e	0.20943138
44	0x3e790e84	0.24321944
45	0x3e1f6f4e	0.15569803
46	0x3d936589	0.07197101
47	0x3e87330b	0.2640613
48	0x3e6dc671	0.2322023
49	0x3e18de7a	0.14928618
50	0x3e8e19bc	0.2775401
51	0x3e793bbd	0.24339195
52	0x3e55e1e3	0.2088695
53	0x3e2ea04e	0.17053339
54	0x3e843e5a	0.2582882
55	0x3e6a5cfb	0.22887032
56	0x3e4354cf	0.1907532
57	0x3e8828f2	0.2659374
58	0x3e330d5d	0.17485566
59	0x3e9d8a75	0.30769697
60	0x3e5fa0fd	0.21838756
61	0x3e2bdc16	0.16783175
62	0x3e67fd04	0.22655112
63	0x3e8b8a93	0.2725416
64	0x3e08635b	0.13319151
65	0x3e97c9c2	0.29646116
66	0x3e529904	0.20566183
67	0x3eaca1b9	0.33717135
68	0x3ddf99f9	0.1091804
69	0x3e467e5b	0.19384138
70	0x3e80de31	0.2516952
71	0x3e93ff87	0.2890589
72	0x3e25c156	0.16187033
73	0x3e8fb896	0.28070515
74	0x3e6687b9	0.22512712
75	0x3e87ae0e	0.2649998
76	0x3dc3ccad	0.09560523
77	0x3e7f3b84	0.24925047
78	0x3e8b6d96	0.27232045
79	0x3dcb9700	0.0994091
80	0x3e587971	0.21140076
81	0x3e9224de	0.28543752
82	0x3e31b587	0.17354403
83	0x3e8b2132	0.27173764
84	0x3e905573	0.28190193
85	0x3dd6107b	0.10452362
86	0x3e36bd23	0.17845587
87	0x3e4e3b5d	0.20139833
88	0x3e8604e2	0.261756
89	0x3d96a567	0.07355767
90	0x3e55ed3b	0.20891277
91	0x3e5bb097	0.21454082
92	0x3e88e8ae	0.2674002
93	0x3e5d43cb	0.21607892
94	0x3e5e19d4	0.2168954
95	0x3e8e8c2b	0.27841315
96	0x3e4bbd4f	0.19896434
97	0x3ea8ee03	0.3299409
98	0x3e5917f6	0.21200547
99	0x3e180ae0	0.14847898
100	0x3e6ed809	0.23324598
101	0x3e95c89a	0.2925461
102	0x3e94adee	0.29038948
103	0x3e18ac11	0.14909388
104	0x3e12264f	0.14272426
105	0x3e0d5dd0	0.13805318
106	0x3e007394	0.1254409
107	0x3e3f1f28	0.18664229
108	0x3de91057	0.1138007
109	0x3e4922e5	0.19642217
110	0x3e876720	0.26445866
111	0x3dcce318	0.10004252
112	0x3e11c21f	0.14234208
113	0x3e6d2998	0.23160398
114	0x3e89a2f4	0.26882136
115	0x3e21f2e9	0.15815319
116	0x3e97f8f2	0.29682118
117	0x3e72bc74	0.23704702
118	0x3e11d8fc	0.14242929
119	0x3d932633	0.0718502
120	0x3e83b75d	0.25725833
121	0x3e772b89	0.24137701
122	0x3e6d28ce	0.23160097
123	0x3e5b9bb8	0.2144612
124	0x3e890dd0	0.2676835
125	0x3e6ee5e1	0.2332988
126	0x3dfd5493	0.12369647
127	0x3e55b0b0	0.20868182
128	0x3da6c5c2	0.08143188
129	0xbc8486da	-0.016177583
130	0x3d35932a	0.0443298
131	0xbd092a3b	-0.03348754
132	0x3dc37c0b	0.09545144
133	0x3d41b8f6	0.047295533
134	0x3daa78b4	0.083238035
135	0x3d25faaa	0.040522255
136	0xbcd69520	-0.026194155
137	0xbcb0a9ff	-0.021565435
138	0xbcc92495	-0.024553576
139	0x3d2881e8	0.041139513
140	0x3df64b52	0.12026085
141	0xbd7c271c	-0.061560735
142	0x3bb60dcb	0.0055558435
143	0xbd64149d	-0.05568372
144	0x3d9f5795	0.07780377
145	0x3c17ecc6	0.00927276
146	0xbd0a0fde	-0.03370654
147	0x3d20534b	0.039141934
148	0xbbba4590	-0.005684562
149	0x3d6d658f	0.057958182
150	0x3d413615	0.047170717
151	0x3dad1e42	0.08453037
152	0xbc2774d3	-0.010220724
153	0x3e0c783c	0.13717741
154	0x3ce1a915	0.027546445
155	0x3c902800	0.017597198
156	0xbd4e05ce	-0.050298505
157	0xbd40b6e1	-0.047049407
158	0x3decc185	0.115603484
159	0xbd91ae21	-0.071132906
160	0xbd83289f	-0.06404232
161	0xbd1865ee	-0.037206583
162	0xbd148146	-0.036256097
163	0x3cf469bd	0.029835576
164	0x3d6fd386	0.058551334
165	0x3e0c5cf5	0.13707335
166	0x3cee7b64	0.029111572
167	0x3db390c1	0.08767844
168	0x3de9f858	0.11424321
169	0xbd92162e	-0.07133137
170	0x3d65ffe2	0.056152232
171	0x3ddbff28	0.107420266
172	0x3dc99eee	0.098447666
173	0x3cdf1d84	0.027235754
174	0x3dbd3f8c	0.09240636
175	0x3d8acdd5	0.067775406
176	0x3d42a180	0.0475173
177	0x3d678524	0.056523457
178	0x3d14754a	0.036244668
179	0xbd4f19d8	-0.050561756
180	0xbcaedd6f	-0.021345822
181	0xbbb9e13f	-0.0056726034
182	0xbd3316fd	-0.043723095
183	0x3db6bded	0.08922944
184	0xbbfb6b76	-0.0076727225
185	0xbdb11b88	-0.08647829
186	0x3deabb5e	0.11461519
187	0xbd50940a	-0.05092243
188	0x3e0fd851	0.14047362
189	0xbd6e80f5	-0.05822845
190	0xbd399a1d	-0.04531299
191	0x3d3263fc	0.043552384
192	0x3e0f6c72	0.14006212
193	0x3cb47197	0.02202682
194	0xbd2b3221	-0.041795854
195	0x3de31f4d	0.110899545
196	0x3cde64a4	0.027147599
197	0xbd5c5a67	-0.053797152
198	0x3b98cb6d	0.004662922
199	0xbd8d148f	-0.06888687
200	0x3d1a9216	0.037736975
201	0xbc70d732	-0.014699744
202	0xbcedbdde	-0.0290212
203	0xbcad9ae5	-0.021192024
204	0x3d4a833b	0.049441557
205	0x3d7178bf	0.058953043
206	0x3dcadecd	0.09905777
207	0x3d12f6c1	0.035879854
208	0x3d4a3be3	0.04937352
209	0x3d414cd8	0.047192425
210	0x3cee4dc9	0.029089825
211	0x3cd35a48	0.025799885
212	0xbc9f754a	-0.019465107
213	0x3d25e269	0.040499125
214	0xbc6af65a	-0.014340961
215	0x3d5df749	0.054190908
216	0x3e194e60	0.14971304
217	0x3dcca626	0.09992628
218	0x3da856f3	0.08219709
219	0x3d38d376	0.04512354
220	0x3dd8485f	0.10560679
221	0x3df2dd76	0.118586466
222	0x3d8d1492	0.06888689
223	0xbd790606	-0.06079676
224	0xbc7c82c3	-0.015412035
225	0x39187b23	0.00014541722
226	0x3d4ef854	0.050529793
227	0x3cc6f908	0.02428867
228	0x3d982553	0.07428994
229	0xbe09d444	-0.13459879
230	0xbd4e05e3	-0.050298583
231	0x3d25678d	0.040381957
232	0xbc2141f9	-0.009842389
233	0x3ce562c2	0.028001193
234	0x3cdc4985	0.026890526
235	0x3def72e4	0.116918355
236	0x3cc11ac5	0.023572335
237	0x3d75a655	0.05997308
238	0x3d883255	0.06650225
239	0xbcd06e26	-0.025443148
240	0xb9ba90e3	-0.00035584634
241	0xbd2e7198	-0.0425888
242	0x3dc698e2	0.09697129
243	0xbc8a9d67	-0.016920758
244	0xbd7bce6c	-0.061476156
245	0xbd07a9a8	-0.03312078
246	0x3ce1cb66	0.027562808
247	0xbd18d758	-0.037314743
248	0xbc1412c3	-0.009037676
249	0x3d1ee1ca	0.038789548
250	0x3ddeae5b	0.108730994
251	0xbceb1e69	-0.028701024
252	0xbdab9ebc	-0.083798856
253	0xbd953d79	-0.072871156
254	0x3dbac01d	0.09118674
255	0x3da2bc6e	0.07946096

rnn.bias_hh_l0 f4 [512]
0	0x3e851d73	0.2599903
1	0x3e20af9b	0.15691988
2	0x3e4e2d83	0.20134549
3	0x3e498ca7	0.19682561
4	0x3e5cf1f5	0.21576674
5	0x3e3e9451	0.18611266
6	0x3e73ab23	0.23795752
7	0x3e6af33d	0.2294435
8	0x3e6755ca	0.2259132
9	0x3e4b93e2	0.19880632
10	0x3ea227a6	0.31670874
11	0x3e26f056	0.16302618
12	0x3e065c54	0.13121158
13	0x3e5a4255	0.21314366
14	0x3e3de928	0.18545973
15	0x3dd26f1a	0.10275097
16	0x3e4e1ea1	0.20128872
17	0x3e2c3067	0.16815339
18	0x3e1cca64	0.15311581
19	0x3e6878b9	0.22702302
20	0x3e7078c7	0.23483573
21	0x3e2db698	0.16964185
22	0x3dddf994	0.10838619
23	0x3e23fde8	0.16014826
24	0x3e3b206e	0.1827409
25	0x3e39a994	0.18131095
26	0x3db29586	0.087199256
27	0x3e117f78	0.14208782
28	0x3e8a1c3a	0.2697466
29	0x3dbd96fe	0.09257315
30	0x3e6811ac	0.22662991
31	0x3e92e52c	0.2869047
32	0x3e691001	0.22760011
33	0x3e5270b4	0.20550805
34	0x3e9ba057	0.30395767
35	0x3e2e7097	0.17035137
36	0x3e7d704b	0.24749868
37	0x3e8140b6	0.25244683
38	0x3e81ca02	0.25349432
39	0x3e1ca32d	0.15296622
40	0x3e424bdf	0.18974255
41	0x3e15f26f	0.14643262
42	0x3db1299a	0.08650513
43	0x3e0e1a36	0.13877186
44	0x3e9cbde6	0.3061363
45	0x3e99ff1f	0.30077454
46	0x3de72957	0.11287182
47	0x3e2b7dc4	0.16747195
48	0x3e7423d4	0.23841792
49	0x3e34401e	0.17602584
50	0x3e193088	0.1495992
51	0x3e5476d1	0.2074845
52	0x3e39c8d0	0.1814301
53	0x3e1e9958	0.15488183
54	0x3e55e32e	0.20887443
55	0x3ddf3ea9	0.10900623
56	0x3ea8ba01	0.3295441
57	0x3e85fb61	0.2616835
58	0x3e9bd76c	0.3043779
59	0x3e2e279c	0.17007297
60	0x3dbafe29	0.091305085
61	0x3e96dcd3	0.2946535
62	0x3e538d86	0.20659456
63	0x3e43efd0	0.1913445
64	0x3e258751	0.161649
65	0x3e8b4ec3	0.27208528
66	0x3e2ba8df	0.16763638
67	0x3e99c7e7	0.30035326
68	0x3e65be8c	0.22435969
69	0x3e794ac6	0.2434493
70	0x3e77c35e	0.2419562
71	0x3e95058d	0.29105797
72	0x3e566b77	0.20939432
73	0x3e22a43b	0.15882961
74	0x3e79e720	0.24404573
75	0x3e4c47ad	0.19949217
76	0x3d50abcf	0.0509451
77	0x3e44d330	0.19221187
78	0x3e0df59d	0.13863225
79	0x3e38e056	0.18054327
80	0x3e810be0	0.25204372
81	0x3e4b4c6e	0.19853374
82	0x3e1bff72	0.15234163
83	0x3e3731e1	0.17890121
84	0x3e5398bc	0.20663732
85	0x3e772ece	0.24138948
86	0x3e18da77	0.14927088
87	0x3e87f3fe	0.2655334
88	0x3e7c33b1	0.24629094
89	0x3e66398d	0.22482891
90	0x3e7d4bee	0.24735996
91	0x3e82296c	0.25422227
92	0x3e60ada3	0.21941237
93	0x3e82e63a	0.25566274
94	0x3e35550a	0.17708221
95	0x3e24a7d0	0.1607964
96	0x3e39a2b2	0.1812847
97	0x3e44da53	0.19223909
98	0x3e6297ec	0.22128266
99	0x3e3f64c4	0.18690783
100	0x3e5b725f	0.21430348
101	0x3ea151ce	0.31507725
102	0x3e1df388	0.15424931
103	0x3e73c547	0.23805724
104	0x3e059572	0.1304529
105	0x3e91a781	0.28448108
106	0x3e872e23	0.26402387
107	0x3e7fde85	0.24987228
108	0x3e3a0aff	0.18168257
109	0x3e640111	0.22266032
110	0x3e863941	0.26215556
111	0x3e787c1d	0.24266095
112	0x3e4a3335	0.19746096
113	0x3dcfeb81	0.10152341
114	0x3e7ca494	0.24672157
115	0x3e7a8d7e	0.24468037
116	0x3e9b7a8e	0.3036694
117	0x3e2420b0	0.16028094
118	0x3e0eb844	0.1393748
119	0x3e58177d	0.2110271
120	0x3e31fad5	0.17380841
121	0x3e6ae394	0.22938377
122	0x3e72f3c0	0.23725796
123	0x3ea800d0	0.3281312
124	0x3e9eaed7	0.30992767
125	0x3e8b3824	0.2719127
126	0x3e136394	0.14393455
127	0x3e3a35d0	0.1818459
128	0x3da8c067	0.08239823
129	0x3c8046cc	0.015658759
130	0x3b31cd8b	0.002713057
131	0x3d05af05	0.032637615
132	0x3dfa06b2	0.12208308
133	0x3d517dd6	0.051145397
134	0x3e00759e	0.12544867
135	0x3e0d4493	0.1379569
136	0x3ca2a8c8	0.019855872
137	0x3d7c18b8	0.06154701
138	0xbcda4a9b	-0.026646903
139	0xbdcf005f	-0.10107493
140	0x3cc025e2	0.023455564
141	0xbb3498ee	-0.0027556974
142	0x3da561b9	0.0807528
143	0xbd293a41	-0.04131532
144	0x3dc622a8	0.09674579
145	0xbc9c5c11	-0.01908687
146	0x3d164d06	0.03669455
147	0xbcbcdf35	-0.023055652
148	0xb9a082c3	-0.00030615003
149	0x3e09d772	0.13461092
150	0x3deab0f3	0.11459532
151	0xbb94f135	-0.0045453557
152	0xbd4d2666	-0.050085448
153	0x3e036a9a	0.12833634
154	0xbc74cab6	-0.014940908
155	0xbb99e3bc	-0.0046963375
156	0xbc5b98bc	-0.013403114
157	0xbc60d7cf	-0.013723328
158	0x3df9f490	0.1220485
159	0x3d987d72	0.07445802
160	0x3ccd67e3	0.025073951
161	0xbd158cc0	-0.036511183
162	0x3c277c53	0.010222512
163	0xbe016614	-0.12636596
164	0x3d487a06	0.048944496
165	0x3b488fd8	0.0030603316
166	0xbd84d942	-0.06486751
167	0x3d090494	0.03345163
168	0x3cc1b017	0.023643536
169	0xbcda5fc7	-0.026656998
170	0xba608e77	-0.0008566151
171	0x3d3e59a7	0.046472218
172	0x3e1c6db5	0.15276225
173	0x3d14cee9	0.036330137
174	0x3e02af4f	0.12762187
175	0x3d336600	0.043798447
176	0x3cd86640	0.026415944
177	0x3d9034a5	0.07041291
178	0xbdb62662	-0.0889404
179	0xbd1ca0f0	-0.03823942
180	0x3e051670	0.1299684
181	0x3dda8300	0.106695175
182	0xbb8655e4	-0.0040995944
183	0x3c6b1a7b	0.014349575
184	0x3e143818	0.14474523
185	0xbd8d3a88	-0.068959296
186	0x3dd170e0	0.10226607
187	0xbd80d0a6	-0.062897965
188	0x3e05091f	0.1299176
189	0x3ddb78b6	0.10716383
190	0x3d8801d3	0.06640973
191	0x3c5c2979	0.013437622
192	0x3ce6d0ef	0.0281758
193	0x3dd7ce93	0.10537448
194	0x3d80963a	0.062786534
195	0xbced6027	-0.028976513
196	0x3dd945a0	0.10608983
197	0x3c54bd76	0.012984624
198	0xbbfc3264	-0.0076964367
199	0x3d1d003b	0.038330298
200	0x3e1849c0	0.14871883
201	0x3d82b828	0.06382781
202	0x3ca71e2d	0.020400131
203	0x3dbce822	0.09223963
204	0xbbf3fd34	-0.0074459556
205	0x3a781409	0.00094634347
206	0x3df20536	0.118174
207	0x3c004bb2	0.007830547
208	0x3d790312	0.060793944
209	0xbda2359d	-0.07920382
210	0x3d7ede83	0.062223922
211	0x3d2ec295	0.042666037
212	0x3cfb2d21	0.030661168
213	0xbd6bae64	-0.05753936
214	0x3dd30d26	0.10305242
215	0x3c178324	0.009247575
216	0x3e14d621	0.14534809
217	0x3e1273fe	0.1430206
218	0x3ba4cfc0	0.0050296485
219	0xbd10d729	-0.035361443
220	0xbbda9dca	-0.006671642
221	0x3d6882b7	0.056765284
222	0x3d62d0a3	0.055374753
223	0x3cadd53d	0.021219844
224	0x3d9a5640	0.07535982
225	0x3d7becb3	0.06150503
226	0x3da74236	0.081669256
227	0xbd0f19b1	-0.03493661
228	0x3d9dcd88	0.077052176
229	0x3d09dd7e	0.033658497
230	0x3b98666b	0.004650881
231	0x3d453943	0.048150312
232	0x3d251196	0.040299974
233	0x3dbe1cfb	0.09282871
234	0xbce9b674	-0.028529383
235	0x3c321a5d	0.010870543
236	0xbceb70f6	-0.028740387
237	0xbb53d7b8	-0.0032324623
238	0x3e152401	0.14564516
239	0x3d889f59	0.06671018
240	0x3c326e9a	0.010890627
241	0x3bde6c2b	0.006787797
242	0x3dc8f843	0.09812977
243	0xbddd5ca4	-0.108086854
244	0x3d7fa434	0.062412456
245	0xbda0f997	-0.078601055
246	0x3d5236aa	0.051321663
247	0x3cf9df99	0.030502127
248	0x3cc2dcc7	0.023786915
249	0xbdaf22e5	-0.085515775
250	0x3e098f5b	0.13433592
251	0x3d047d92	0.032346316
252	0x3ca16b73	0.019704556
253	0xbd56bd79	-0.05242679
254	0x3dbe4243	0.09289982
255	0x3d463d7f	0.04839849

output.weight f4 [95, 128]
0	0x3dc8fe42	0.09814121
1	0x3dbcfb1b	0.09227582
2	0x3e384b76	0.17997536
3	0xbd6847bf	-0.056709047
4	0x3e49330a	0.19648376
5	0xbe4a48cb	-0.19754331
6	0xbe51b3d0	-0.2047875
7	0x3d288d01	0.041150097
8	0x3cceb31d	0.025231892
9	0x3d86cb59	0.06581754
10	0xbdd7f5f1	-0.105449565
11	0xbc381a53	-0.011236745
12	0xbd21d7b1	-0.03951234
13	0xbd165762	-0.03670443
14	0xbe208c17	-0.1567844
15	0xbd90ade0	-0.07064414
16	0x3d3a53a3	0.04548992
17	0xbd933d5e	-0.07189439
18	0xbd0d2a1f	-0.034463998
19	0xbe62cd69	-0.2214867
20	0x3dbd6c18	0.09249133
21	0x3d60122a	0.054704823
22	0xbe4990c0	-0.19684124
23	0x3d2067e9	0.039161596
24	0x3d04203e	0.03225731
25	0xbe0bc052	-0.13647583
26	0x3e29b0f9	0.16571416
27	0xbe196e27	-0.14983426
28	0x3d18d611	0.037313525
29	0xbc8fee17	-0.017569585
30	0xbcbb3d2a	-0.022856314
31	0xbe174cf3	-0.14775448
32	0xbdf480b6	-0.11938612
33	0xbc3fb68f	-0.01170124
34	0x3d8cb52f	0.068704955
35	0x3e0ca701	0.13735582
36	0xbda6cebc	-0.081449
37	0x3e194b02	0.1497002
38	0xbd3fc010	-0.046814024
39	0xbde68c9d	-0.112572886
40	0x3dd7aaf4	0.105306536
41	0xbda8faa3	-0.0825093
42	0xbe4197d9	-0.18905582
43	0xbe6016ee	-0.21883747
44	0xbe207701	-0.15670396
45	0x3e4bf64a	0.1991817
46	0x3da2f350	0.079565644
47	0x3e28fb55	0.16502126
48	0x3e162620	0.14662981
49	0x3de8d7a0	0.11369252
50	0xbdd90348	-0.10596329
51	0x3d8403eb	0.0644606
52	0x3df3faa0	0.11913037
53	0xbe2623ad	-0.16224547
54	0xbcdaead3	-0.026723301
55	0xbe6a9a0e	-0.2291033
56	0xbe03d118	-0.12872732
57	0x3d207ad6	0.039179645
58	0xbd202dd4	-0.039106205
59	0x3ddbdde3	0.10735681
60	0x3d9c8cd2	0.07644047
61	0xbd02918c	-0.031877086
62	0xbd1c92a2	-0.038225777
63	0xbe62b9db	-0.2214121
64	0xbdc9eddd	-0.09859822
65	0xbe146a72	-0.1449373
66	0xbe13b6d2	-0.14425209
67	0x3dd91ecb	0.106015764
68	0xbd8aacae	-0.06771217
69	0x3c460d97	0.012088201
70	0x3d268481	0.04065371
71	0xbd5f3149	-0.05449036
72	0xbe3a4fac	-0.18194455
73	0xbe006bd0	-0.12541127
74	0xbdc7bc06	-0.097526595
75	0xbbb771ca	-0.0055982815
76	0x3ddd4b3b	0.10805365
77	0x3dbbb637	0.09165614
78	0x3d892e5e	0.06698297
79	0xbccc0613	-0.02490524
80	0x3dd456fc	0.103681535
81	0x3d9d2f34	0.07675019
82	0xbe3a1769	-0.18172993
83	0xbcdf1b2f	-0.027234642
84	0x3daafaea	0.08348639
85	0xbe2dd5d6	-0.16976103
86	0xbe4b8212	-0.19873837
87	0x3cbcb1e4	0.023034044
88	0x3e57e788	0.21084416
89	0x3dc842e8	0.09778386
90	0xbda38d4d	-0.07985935
91	0xbdc3b406	-0.09555821
92	0x3df463fa	0.119331315
93	0x3d04bdce	0.032407574
94	0x3dd5018f	0.10400688
95	0xbc96d692	-0.018412862
96	0x3e71f5c6	0.23628911
97	0x3dcf9d6a	0.10137446
98	0x3dd99542	0.10624172
99	0xbc4a5402	-0.012349131
100	0x3e2b6333	0.1673706
101	0x3e1823df	0.14857434
102	0xbe44213f	-0.19153307
103	0x3b4821af	0.0030537655
104	0xbe4e8d5d	-0.20171113
105	0x39672dac	0.00022046891
106	0xbdcfb211	-0.10141385
107	0xbe269944	-0.16269404
108	0x3de97e34	0.114010245
109	0x3da23722	0.07920672
110	0x3deedb01	0.116628654
111	0xbdb374eb	-0.08762535
112	0x3d5cab99	0.053874586
113	0x3dd2a964	0.10286215
114	0x3e041879	0.1289996
115	0x3c8c1a33	0.017102337
116	0xbdf18e45	-0.11794714
117	0xbbc833e9	-0.006109704
118	0xbe3d5bea	-0.18492094
119	0xbd62262e	-0.055212192
120	0xbd678856	-0.056526504
121	0x3d861e40	0.065487385
122	0x3e52786a	0.20553747
123	0x3d4cc0a2	0.049988396
124	0xbd71ccd4	-0.05903323
125	0x3da4f956	0.080553696
126	0xbe5a0028	-0.21289122
127	0x3df0a5c0	0.11750364
128	0xbb78cc9b	-0.0037963751
129	0x3e503cc7	0.20335685
130	0x3dec889d	0.115494944
131	0xbd9ed1a1	-0.07754827
132	0x3df9a2ea	0.121892765
133	0xbd6084ea	-0.054814257
134	0xbd45af07	-0.048262622
135	0x3e09030d	0.1338007
136	0x3cdb5466	0.026773643
137	0x3c49a570	0.01230751
138	0xbe15a2e3	-0.14612918
139	0x3df0d1c6	0.11758761
140	0xbe496e0c	-0.19670886
141	0x3cbc25ca	0.022967238
142	0xbdc6e2a2	-0.097111955
143	0xbe11e1a2	-0.14246228
144	0x3e052eed	0.13006182
145	0xbe655902	-0.22397235
146	0xbdba0239	-0.09082455
147	0xbe338416	-0.17530856
148	0x3d6f8b28	0.05848232
149	0x3e3d9549	0.18513979
150	0xbe5e99f5	-0.21738417
151	0x3d5f0f6c	0.054458067
152	0xbc8963f1	-0.016771289
153	0xbe2059fc	-0.15659326
154	0x3e43baa0	0.1911416
155	0xbe5eb46e	-0.21748516
156	0x3d72d3f7	0.059284177
157	0xbc4271c2	-0.011867942
158	0x3d87fb85	0.066397704
159	0xbc17cbc5	-0.009264891
160	0xbde3789f	-0.11106991
161	0x3d80a54d	0.062815286
162	0x3c5a088b	0.013307701
163	0x3e23a759	0.15981807
164	0xbcff40aa	-0.031158764
165	0x3e082d15	0.13298447
166	0xbda18125	-0.078859605
167	0xbe31b7e4	-0.17355305
168	0x3d5f03bb	0.054446917
169	0xbd3ecbdc	-0.046581134
170	0xbd893c57	-0.06700962
171	0xbe06c66d	-0.13161631
172	0xbd93b132	-0.07211532
173	0x3e353803	0.17697148
174	0xbd8dc70e	-0.06922732
175	0x3cdffc6a	0.02734204
176	0x3e3a7c7d	0.18211551
177	0x3e299e4b	0.1656429
178	0xbe0496d1	-0.12948157
179	0x3dc745f1	0.09730137
180	0x3e0f01d4	0.13965541
181	0xbd918e4c	-0.07107219
182	0xba930665	-0.0011217116
183	0xbe1f3c3b	-0.1555032
184	0xbe14cede	-0.14532039
185	0x3d213e25	0.039365906
186	0xbd9d26b9	-0.076734014
187	0x3dd9597f	0.10612773
188	0x3e284a2b	0.16434543
189	0x3cde9631	0.027171226
190	0xbde402e9	-0.111333676
191	0xbe73f4d5	-0.23823865
192	0xbe38592c	-0.18002766
193	0xbdbb8ca4	-0.091576844
194	0xbe167c4b	-0.14695852
195	0xbc40c0f3	-0.011764753
196	0xbe31dd87	-0.17369662
197	0x3cf75282	0.03019071
198	0x3d26a173	0.040681314
199	0xbb3ef5f1	-0.0029138292
200	0xbe824d90	-0.254498
201	0xbe32036b	-0.17384116
202	0xbe307cde	-0.17235133
203	0x3df1d447	0.11808067
204	0x3d892b13	0.06697669
205	0x3d570dff	0.052503582
206	0x3e0b549f	0.13606499
207	0xbdbcf8b1	-0.092271216
208	0x3e4d1c69	0.20030369
209	0x3d22fd3e	0.03979229
210	0xbdb737de	-0.08946203
211	0x3c3d909a	0.01157012
212	0x3c82f0f3	0.015984034
213	0xbde933c1	-0.113868244
214	0xbde5637e	-0.11200617
215	0x3e2d925f	0.16950367
216	0x3e410f22	0.18853429
217	0x3e1f65c6	0.15566167
218	0xbd948d80	-0.072535515
219	0x3d5db824	0.05413069
220	0x3dcd8d74	0.10036746
221	0xbd422717	-0.04740056
222	0x3ded9019	0.1159975
223	0x3d7b7ee9	0.061400328
224	0x3e19a638	0.15004814
225	0x3e553c50	0.20823789
226	0x3e2cf81e	0.16891524
227	0xbda1ac19	-0.07894153
228	0x3e1f6c49	0.15568651
229	0x3c95f5c2	0.018305663
230	0xbe5a3bc7	-0.21311866
231	0x3d7b540a	0.061359443
232	0xbe655933	-0.22397308
233	0x3d78a99a	0.06070862
234	0xbd1a8747	-0.037726667
235	0xbe133750	-0.14376569
236	0x3dc29e6d	0.095028736
237	0x3e0ebd30	0.13939357
238	0xbc44eb7e	-0.012019036
239	0xbdd44f29	-0.10366661
240	0x3d716752	0.058936425
241	0x3d6c19ea	0.0576419
242	0x3e21c5cd	0.15798111
243	0xbdbc735e	-0.09201692
244	0xbe07eb9d	-0.13273473
245	0xbd86e6cf	-0.06586992
246	0xbd89db68	-0.067313015
247	0xbe16cf10	-0.14727426
248	0xbda74d4b	-0.08169039
249	0xbd39b0d2	-0.045334645
250	0x3e3f80b8	0.18701446
251	0x3c91cbcb	0.017797371
252	0xbbc04c1d	-0.0058684484
253	0x3e21d04f	0.1580212
254	0xbe0a0002	-0.13476565
255	0x3e5c3d60	0.21507788

output.bias f4 [95]
0	0xbe4a4b28	-0.19755232
1	0xbe092560	-0.13393164
2	0xbe5bf92c	-0.2148177
3	0xbdf32577	-0.1187238
4	0x3dc1437a	0.09436698
5	0x3ba63b0b	0.0050729564
6	0x3da1a9e0	0.07893729
7	0x3d9c42ff	0.07629966
8	0x3cc2a0ea	0.02375837
9	0xbe269db6	-0.162711
10	0x3d10d8be	0.03536295
11	0x3da2b535	0.07944719
12	0xbe31ccc7	-0.17363273
13	0x3dfc0ebb	0.12307497
14	0xbe1c63c3	-0.15272431
15	0x3dd4baca	0.1038719
16	0xbe32c401	-0.17457582
17	0x3dd0f17a	0.10202308
18	0x3e26770b	0.16256349
19	0xbd772d0a	-0.060345687
20	0xbd5bc2dc	-0.05365263
21	0xbd88b5c3	-0.06675293
22	0xbdfcf5ae	-0.12351547
23	0x3bf08a68	0.007340718
24	0xbe27bd85	-0.1638089
25	0xbdc6e7a9	-0.097121544
26	0xbe284327	-0.16431867
27	0xbe081553	-0.13289385
28	0xbe225c15	-0.15855439
29	0xbe37eecc	-0.17962188
30	0xbd61ccaf	-0.055126842
31	0xbd83317f	-0.06405925
32	0xbe1ccf7b	-0.15313523
33	0xbd357257	-0.044298496
34	0xbd8be819	-0.068313785
35	0xbdf48844	-0.11940053
36	0xbd47f349	-0.048816
37	0xbd60fa95	-0.054926474
38	0xbe1e9e6d	-0.15490122
39	0xbe2dbe8f	-0.16967224
40	0xbdf09813	-0.11747756
41	0xbdc06cce	-0.09395753
42	0xbdd6c18c	-0.10486135
43	0xbe5794ab	-0.21052806
44	0xbd918c7a	-0.07106872
45	0xbe37fd9f	-0.17967843
46	0xbe09f4ab	-0.1347224
47	0xbdafa7b4	-0.08576909
48	0xbde63389	-0.11240298
49	0xbd3b3a20	-0.04570973
50	0xbd05ded1	-0.032683197
51	0x3c4acade	0.012377469
52	0xbd396802	-0.045265205
53	0x3de1f796	0.110335514
54	0xbd6b025f	-0.057375308
55	0xbe53dbcf	-0.20689319
56	0xbe215e49	-0.15758623
57	0xbd8d07e5	-0.068862714
58	0xbdc6edec	-0.09713349
59	0x3cf62059	0.030044721
60	0x3de141ab	0.10998853
61	0xbe2f8548	-0.17140687
62	0xbe583708	-0.21114743
63	0xbe40d939	-0.18832864
64	0xbe453a0d	-0.19260426
65	0x39b68b23	0.0003481741
66	0xbe0b2cbf	-0.13591288
67	0x3d7f8eac	0.062391922
68	0xbc305d42	-0.010764422
69	0xbe594ef4	-0.21221524
70	0xbe083763	-0.13302378
71	0xbe5aef8f	-0.21380447
72	0xbe1c6da5	-0.15276201
73	0xbe1e183c	-0.15438932
74	0xbda0b056	-0.078461334
75	0xbd811eea	-0.063047245
76	0xbd82cdab	-0.06386884
77	0x3d8c1628	0.068401635
78	0xbdf2170d	-0.11820803
79	0xbe0459bc	-0.12924856
80	0xbda24278	-0.07922834
81	0xbe448e1c	-0.19194835
82	0xbdb880ab	-0.090089165
83	0xbe4567cd	-0.19277878
84	0xbe37fae9	-0.17966808
85	0xbe6035d7	-0.21895538
86	0xbe132759	-0.14370479
87	0xbe1b5d12	-0.15172222
88	0xbe06d79e	-0.13168189
89	0xbda93145	-0.082613505
90	0xbe43388f	-0.19064544
91	0xbdefe16a	-0.11712916
92	0x3d8d8463	0.069100164
93	0xbd8dd5e6	-0.069255635
94	0xbe49e296	-0.19715342
